…
> print(file.exists(file.path(data_dir, "y_walk.rds")))
[1] TRUE

> x_walk <- file.path(data_dir, "x_walk.rds") %>% readRDS()

> y_walk <- file.path(data_dir, "y_walk.rds") %>% readRDS()

> model <- keras_model_sequential() %>% layer_conv_1d(input_shape = c(260, 
+     3), filters = FLAGS$conv_1_filters, kernel_size = FLAGS$conv_1_kerne .... [TRUNCATED] 

> model
Model
________________________________________________________________________________
Layer (type)                        Output Shape                    Param #     
================================================================================
conv1d_1 (Conv1D)                   (None, 253, 64)                 1600        
________________________________________________________________________________
max_pooling1d_1 (MaxPooling1D)      (None, 126, 64)                 0           
________________________________________________________________________________
dropout_1 (Dropout)                 (None, 126, 64)                 0           
________________________________________________________________________________
conv1d_2 (Conv1D)                   (None, 119, 64)                 32832       
________________________________________________________________________________
max_pooling1d_2 (MaxPooling1D)      (None, 19, 64)                  0           
________________________________________________________________________________
dropout_2 (Dropout)                 (None, 19, 64)                  0           
________________________________________________________________________________
flatten_1 (Flatten)                 (None, 1216)                    0           
________________________________________________________________________________
dense_1 (Dense)                     (None, 256)                     311552      
________________________________________________________________________________
dropout_3 (Dropout)                 (None, 256)                     0           
________________________________________________________________________________
dense_2 (Dense)                     (None, 256)                     65792       
________________________________________________________________________________
dropout_4 (Dropout)                 (None, 256)                     0           
________________________________________________________________________________
dense_3 (Dense)                     (None, 15)                      3855        
================================================================================
Total params: 415,631
Trainable params: 415,631
Non-trainable params: 0
________________________________________________________________________________



> model %>% compile(loss = "categorical_crossentropy", 
+     optimizer = "adam", metrics = c("accuracy"))

> history <- model %>% fit(x_walk$train, y_walk$train, 
…
